…
;, name=&quot;layer_2&quot;), keras.layers.Dropout(rate=0.2), keras.layers.Dense(16, activation=&quot;relu&quot;, name=&quot;layer_3&quot;), keras.layers.Dropout(rate=0.2), keras.layers.Dense(1, activation=&quot;sigmoid&quot;, name=&quot;layer_4&quot;) ]) . model.compile(loss=&quot;binary_crossentropy&quot;, optimizer=&quot;adam&quot;, metrics=[&quot;accuracy&quot;]) model.summary() . Model: &#34;sequential&#34; _________________________________________________________________ Layer (type) Output Shape Param # ================================================================= flatten (Flatten) (None, 755) 0 _________________________________________________________________ layer_1 (Dense) (None, 30) 22680 _________________________________________________________________ dropout (Dropout) (None, 30) 0 _________________________________________________________________ layer_2 (Dense) (None, 16) 496 _________________________________________________________________ dropout_1 (Dropout) (None, 16) 0 _________________________________________________________________ layer_3 (Dense) (None, 16) 272 _________________________________________________________________ dropout_2 (Dropout) (None, 16) 0 _________________________________________________________________ layer_4 (Dense) (None, 1) 17 ================================================================= Total params: 23,465 Trainable params: 23,465 Non-trainable params: 0 _________________________________________________________________ . model.fit(X_train, y_train, epochs=50, batch_size=1) . test_loss, test_acc = model.evaluate(X_test, y_test) print(&#39;accuracy&#39;, test_acc) . 26/26 [==============================] - 0s 806us
…
